S_2/mini_project/src/mlops_mini_project/model.pth (torch, 378536 bytes, 8 tensors)

conv1.weight f4 [32, 1, 3, 3]
0	0xbdc5ead6	-0.09663932
1	0xbd0c60b0	-0.034271896
2	0x3b474071	0.00304034
3	0x3e50dfcf	0.20397876
4	0xbd1ef92d	-0.03881185
5	0x3e987e8f	0.29784057
6	0xbe5b342e	-0.21406624
7	0xbe3340db	-0.17505209
8	0xbcd98ce2	-0.026556436
9	0xbee8d9ad	-0.45478573
10	0x3d153889	0.03643087
11	0x3df3d2b1	0.119054206
12	0xbd552b90	-0.052043498
13	0x3e288631	0.1645744
14	0xbd0b6c09	-0.034038577
15	0xbe30aca2	-0.17253354
16	0x3e7ad7d0	0.24496388
17	0x3e367793	0.17819051
18	0x3db41696	0.087933704
19	0x3e981819	0.29705885
20	0x3eb299a2	0.34882838
21	0xbe8101ce	-0.2519669
22	0xbe3e35bb	-0.18575184
23	0x3f02a47d	0.5103224
24	0xbe52016c	-0.20508355
25	0xbef60cd0	-0.4805665
26	0xbe50f7ea	-0.20407072
27	0xbd24af46	-0.040206216
28	0xbedc8c3b	-0.43075737
29	0xbe54593b	-0.20737164
30	0xbe07e327	-0.13270245
31	0xbd2358c8	-0.03987959
32	0x3e9e4a24	0.3091594
33	0xbb2de250	-0.0026532598
34	0x3d2f5666	0.042807005
35	0x3df991b6	0.12185995
36	0xbee37759	-0.44426993
37	0xbf0668f1	-0.5250388
38	0xbe948ae0	-0.29012203
39	0x3e1bc0f1	0.1521032
40	0x3e7770ba	0.24164096
41	0xbd045470	-0.03230709
42	0x3eaf6ee7	0.342643
43	0x3deb598b	0.11491688
44	0x3e313487	0.17305194
45	0x3c1df1cd	0.009640169
46	0x3d78bab2	0.06072492
47	0x3e751300	0.23933029
48	0x3e48dc5b	0.19615309
49	0xbe8917eb	-0.2677606
50	0xbe45daf5	-0.19321807
51	0x3e0860b1	0.13318135
52	0xbe0b932f	-0.13630365
53	0x3e08a344	0.13343531
54	0xbea4ce07	-0.32188436
55	0x3e876b0d	0.2644886
56	0x3dff70af	0.124726646
57	0x3e3899b5	0.18027385
58	0xbe337815	-0.17526276
59	0x3ea3192a	0.31855136
60	0xbc994523	-0.018709725
61	0xbe9d5408	-0.30728173
62	0xbecca875	-0.39972273
63	0x3dabfaf7	0.08397477
64	0xbe4936d3	-0.1964982
65	0x3da0edd8	0.07857865
66	0x3e57ee31	0.21086957
67	0xbe42c9b0	-0.1902225
68	0xbeb7a7df	-0.35870263
69	0xbe277796	-0.16354212
70	0x3e608c05	0.21928413
71	0x3ebbb074	0.3665806
72	0xbe6041c6	-0.2190009
73	0xbeef6719	-0.46758345
74	0xbe656c5d	-0.22404619
75	0x3ebdc418	0.3706367
76	0xbe6aa9d5	-0.22916348
77	0xbed38f67	-0.41320345
78	0x3eb713bb	0.3575724
79	0x3dc2b887	0.09507852
80	0xbf285ff9	-0.6577144
81	0xbe8ebb20	-0.2787714
82	0xbee50e3d	-0.44737425
83	0xbe7ceb75	-0.24699195
84	0xbefeb811	-0.49749807
85	0xbda20cc3	-0.0791259
86	0xbe67b46e	-0.22627422
87	0x3eae3908	0.34027886
88	0x3ec519b8	0.38496184
89	0xbd3cf6a2	-0.046133645
90	0x3ed9b1ed	0.4251856
91	0x3df75ffc	0.120788544
92	0xbdc5df86	-0.09661774
93	0xbe3d67c4	-0.18496615
94	0xbf1bc212	-0.60843
95	0xbddf9343	-0.1091676
96	0xbdabecbb	-0.08394762
97	0x3d8ea706	0.06965451
98	0x3ea8eb44	0.32991993
99	0xba7211f9	-0.00092342455
100	0xbe1a6342	-0.15076926
101	0xbd43cb67	-0.0478014
102	0x3df29810	0.1184541
103	0xbf043723	-0.5164663
104	0x3e32515a	0.17413846
105	0x3e1ffcea	0.15623823
106	0x3e8c8f22	0.27452952
107	0xbd2a5d20	-0.041592717
108	0x3dcc4715	0.09974495
109	0x3dc6e25a	0.09711142
110	0xbe86ea48	-0.26350617
111	0x3dc0db61	0.09416843
112	0xbd69f7e8	-0.057121187
113	0x3d1d6d93	0.038434576
114	0xbd731315	-0.05934437
115	0x3e85695c	0.26056945
116	0xbec4f672	-0.38469273
117	0xbe2a7786	-0.16647157
118	0xbe92f64c	-0.28703535
119	0x3edc8c6b	0.4307588
120	0xbeb012c8	-0.3438933
121	0xbe95547f	-0.29166028
122	0x3efa91cd	0.48939362
123	0xbeef4e8b	-0.4673961
124	0x3deae44d	0.11469326
125	0x3ecd88b7	0.40143368
126	0x3d5ab19b	0.053392034
127	0x3e1ee27d	0.15516086
128	0xbedcdd32	-0.4313751
129	0x3e85338a	0.26015884
130	0x3ec7eabd	0.3904628
131	0xbf2d9223	-0.6780111
132	0x3e5e40c2	0.2170439
133	0x3c492ff1	0.0122794965
134	0xbe993952	-0.29926544
135	0xbe324c17	-0.17411838
136	0xbef4e3ac	-0.4782995
137	0xbea49ce9	-0.32150963
138	0xbe0e1b7f	-0.13877676
139	0x3e561411	0.20906092
140	0xbe246880	-0.16055489
141	0x3eaa8a28	0.3330853
142	0x3e525d33	0.20543365
143	0x3eed4765	0.46343532
144	0xbe969b9c	-0.29415596
145	0x3f08ec5d	0.5348566
146	0x3e89bcbd	0.26901808
147	0xbf2e1ab8	-0.6800952
148	0xbeab1bf9	-0.3341978
149	0xbd79dbc4	-0.0610006
150	0x3da146ee	0.07874857
151	0xbed7deb6	-0.42162102
152	0xbead06c3	-0.3379422
153	0xbe27f0f9	-0.16400518
154	0xbe2eab64	-0.17057568
155	0x3e132fe1	0.14373733
156	0xbdc19992	-0.09453119
157	0xbd43cc5c	-0.047802314
158	0x3e17dbc1	0.14829923
159	0x3e824407	0.25442526
160	0x3d8143d9	0.06311769
161	0x3e2efe40	0.17089176
162	0x3e6e1ddb	0.23253576
163	0x3e9159fa	0.2838896
164	0xbe585bfc	-0.21128839
165	0xbe27e3d3	-0.16395502
166	0x3e995ca2	0.29953486
167	0x3dd44b92	0.103659764
168	0xbe8e1981	-0.27753833
169	0x3d7b6acb	0.061381143
170	0x3e70f883	0.235323
171	0x3e0e9f44	0.13927943
172	0xbea17b28	-0.31539273
173	0xbe9e6f60	-0.30944347
174	0x3e883750	0.266047
175	0xbedbe54b	-0.42948374
176	0xbf008cf0	-0.50215054
177	0xbf2ad755	-0.6673482
178	0xbef5c7c4	-0.48003972
179	0x3dd6e0f1	0.10492123
180	0xbd279ec1	-0.040922884
181	0x3e03d29f	0.12873314
182	0x3db6a9ae	0.089190826
183	0x3e185fff	0.1488037
184	0xbc901d6b	-0.017592153
185	0x3e091f18	0.13390768
186	0x3d741dea	0.05959884
187	0x3d364a34	0.04450436
188	0xbd0fd09a	-0.035111047
189	0xbe52f296	-0.20600352
190	0xbe42d748	-0.19027436
191	0xbef87988	-0.4853022
192	0x3e89e2f1	0.26930955
193	0x3d0f090f	0.03492075
194	0xbe9d799f	-0.30756852
195	0x3de7337c	0.11289117
196	0x3f05d0d2	0.5227176
197	0x3be2ccdb	0.0069213933
198	0xbd1ef248	-0.038805276
199	0xbe06c35d	-0.13160463
200	0x3e067763	0.1313148
201	0xbdd63d71	-0.10460938
202	0x3dc6e991	0.09712518
203	0x3e4fb3d3	0.20283441
204	0xbd869e82	-0.06573202
205	0x3e830b94	0.2559477
206	0xbeac713a	-0.33680135
207	0x3ef0fd84	0.47068417
208	0x3edf997c	0.43671787
209	0xbdfa3af5	-0.122182764
210	0xbc56f87c	-0.013120767
211	0xbb6e388e	-0.0036349627
212	0xbf26b9a7	-0.65127033
213	0xbf233ffb	-0.637695
214	0xbf293fcf	-0.6611299
215	0xbecc7266	-0.3993103
216	0x3c7a1237	0.015263132
217	0x3e36da53	0.17856722
218	0xbe82df47	-0.25560972
219	0xbe00222a	-0.12513033
220	0xbe2e95b8	-0.170493
221	0x3e6a2edb	0.22869436
222	0xbd5fccaf	-0.05463856
223	0xbe4fdbc4	-0.20298678
224	0x3e3efa3f	0.18650149
225	0x3e983a19	0.29731825
226	0x3d9bcc58	0.07607335
227	0xbecfd00c	-0.40588415
228	0x3e27cf57	0.16387688
229	0x3c255658	0.010091387
230	0xbeed48d6	-0.46344632
231	0x3e335831	0.17514111
232	0xbead67b4	-0.33868182
233	0x3dd4d787	0.10392671
234	0x3e343303	0.17597584
235	0xbd9662ae	-0.073430404
236	0xbe07ee3e	-0.13274476
237	0xbc4d5903	-0.012533429
238	0x3dd1759f	0.102275126
239	0xbe4e092b	-0.20120685
240	0xbed2a68a	-0.41142684
241	0x3e987018	0.2977302
242	0x3cfe28c3	0.031025296
243	0x3dcdefde	0.10055517
244	0xbdd88d35	-0.10573808
245	0xbd0987e2	-0.033576854
246	0x3efe6791	0.4968839
247	0x3e6b84a7	0.22999822
248	0x3df5a4f5	0.11994354
249	0xbe2f2ce9	-0.17106976
250	0xbf136f3a	-0.57591593
251	0xbd8bdddb	-0.06829425
252	0x3c977784	0.018489607
253	0x3e0587dc	0.13040107
254	0x3e15d7ab	0.14633052
255	0x3e219639	0.15779962

conv1.bias f4 [32]
0	0xbdee646f	-0.1164025
1	0xbd845624	-0.064617425
2	0xbda95d23	-0.082697175
3	0xbe123604	-0.14278418
4	0xbe19a287	-0.15003406
5	0xbe9bc961	-0.30427077
6	0xbe07cea7	-0.13262425
7	0xbed52a3a	-0.4163378
8	0x3d32123c	0.04347442
9	0xbdcce368	-0.10004312
10	0xbdaa2a92	-0.08308901
11	0xbee63888	-0.44965005
12	0xbd955452	-0.072914734
13	0xbe2e6304	-0.17029959
14	0x3da6eab1	0.081502326
15	0xbd4ccf17	-0.050002184
16	0x3da668af	0.081254356
17	0xbef6275c	-0.48076904
18	0xbea54aa3	-0.32283506
19	0x3e2dcf87	0.16973697
20	0xbe83c81a	-0.25738603
21	0xbdfa8677	-0.122326784
22	0x3b90d3f8	0.0044198
23	0xbd6353cc	-0.055499837
24	0xbde2cbdf	-0.110740416
25	0xbe2e9fe3	-0.1705318
26	0xbe839694	-0.2570082
27	0xbdfc623d	-0.12323425
28	0xbde9337e	-0.113867745
29	0x3e9afcc5	0.30270973
30	0xbd8319ee	-0.0640143
31	0xbe027688	-0.12740529

conv2.weight f4 [64, 32, 3, 3]
0	0xbe21ca90	-0.15799928
1	0xbbb21415	-0.005434523
2	0x3ddd630d	0.10809908
3	0x3dc62327	0.096746735
4	0x3d025dc0	0.03182769
5	0x3d9bf4af	0.07615029
6	0x3cb88122	0.022522513
7	0xbde4799e	-0.11156009
8	0xbd320d8e	-0.043469958
9	0xbcad6ec8	-0.021170989
10	0x3cafbfa1	0.02145368
11	0x3e19115f	0.14948033
12	0xbdd06a4a	-0.10176523
13	0x3bfe286a	0.0077562826
14	0x3d2945bd	0.041326273
15	0xbe45657f	-0.19276999
16	0xbe0f8d36	-0.14018711
17	0xbdb90e8b	-0.09035977
18	0xbdf0cc55	-0.11757723
19	0xbe846ff7	-0.25866672
20	0xbe238a83	-0.15970807
21	0x3d3017c2	0.042991407
22	0x3dfdab89	0.12386233
23	0x3e28394c	0.16428107
24	0x3da8ba04	0.08238605
25	0x3db774bf	0.089578144
26	0xbd5e5cd1	-0.054287735
27	0xbc8638c6	-0.016384494
28	0x3e1f2689	0.15542044
29	0x3e754cbf	0.23955058
30	0xbcccd1b7	-0.025002344
31	0x3dcb273e	0.09919594
32	0x3d3e0d80	0.046399593
33	0xbdc0ad4b	-0.09408053
34	0xbda7721f	-0.08176064
35	0x3e30f273	0.17279987
36	0x3d6981b1	0.05700845
37	0x3d36e96b	0.0446562
38	0x3e167d61	0.14696266
39	0xbc266290	-0.010155335
40	0x3dce9f7c	0.10089013
41	0x3e7f909f	0.24957512
42	0xbe00204d	-0.12512322
43	0x3d44cc71	0.048046533
44	0x3e94c1c0	0.2905407
45	0xbe009a98	-0.12558973
46	0xbdcb73b0	-0.09934175
47	0xbe13420b	-0.14380662
48	0xbd3d65fb	-0.046239834
49	0xbd414c20	-0.04719174
50	0xbc6ba382	-0.014382245
51	0xbe446e19	-0.19182624
52	0xbe348c2e	-0.176316
53	0xbd59d208	-0.053178817
54	0xbd9f8502	-0.07789041
55	0xbe0eb665	-0.13936765
56	0x3c20f4f0	0.009824023
57	0x3bcc3124	0.006231444
58	0x3ddf0fd1	0.108916886
59	0x3e40f8d5	0.18844922
60	0xbcd47015	-0.025932351
61	0xbd02a1b7	-0.031892505
62	0xbe2361c6	-0.15955266
63	0xbe2d7363	-0.16938548
64	0x3e35fdbf	0.17772578
65	0x3e21b282	0.15790752
66	0xbe1555ce	-0.14583513
67	0xbbdd9978	-0.0067626797
68	0xbc02c32b	-0.007981102
69	0xbdc41613	-0.09574523
70	0xbd76160b	-0.060079616
71	0x3e8412ca	0.25795585
72	0xbd864a8b	-0.06557187
73	0x3e004af8	0.12528598
74	0xbe86b992	-0.26313454
75	0xbd7160b7	-0.058930125
76	0xbdffbdd4	-0.12487379
77	0xbe52412c	-0.20532674
78	0xbca34868	-0.019931987
79	0xbb4df18f	-0.0031424498
80	0xbd0f36ca	-0.03496436
81	0xbc21839a	-0.009858036
82	0x3daae3da	0.083442405
83	0x3e4142e7	0.18873177
84	0xbe00767f	-0.12545203
85	0xbd286daf	-0.041120227
86	0xbd982dc2	-0.074306026
87	0xbd5689da	-0.05237756
88	0xbd0036e2	-0.03130234
89	0x3e1679c5	0.14694889
90	0xbe4817a9	-0.19540276
91	0x3e4563e7	0.19276391
92	0x3e9c15a2	0.30485255
93	0xbd7a2cc4	-0.061077848
94	0x3d56be6f	0.052427705
95	0x3d9bd0af	0.076081626
96	0xbcd8671f	-0.02641636
97	0x3d654fd2	0.055984326
98	0x3e7ad8ea	0.24496809
99	0xbd84ecac	-0.06490454
100	0x3c67d411	0.014149682
101	0x3da38aa4	0.07985428
102	0xbe0e7c72	-0.1391466
103	0x3d960ec6	0.073270366
104	0x3d526cc5	0.051373262
105	0xbe61e358	-0.22059381
106	0xbe8fec70	-0.28110075
107	0x3d656869	0.056007776
108	0xbd76cefe	-0.060255997
109	0xbd737e0d	-0.059446383
110	0xbe0be7ad	-0.13662596
111	0xbca8678b	-0.020557186
112	0xbd3924d4	-0.045201138
113	0xbd161a0c	-0.036645934
114	0xbe05f07c	-0.13080019
115	0xbdda65cd	-0.10663948
116	0xbe4fe0f4	-0.20300657
117	0xbde1d66c	-0.11027226
118	0x3d937891	0.072007306
119	0x3dc8acd6	0.09798591
120	0xbdbd23cd	-0.09235344
121	0x3d0cbeb7	0.034361567
122	0xbbec2d0c	-0.0072075184
123	0xbe07e8db	-0.13272421
124	0xbdcc3d4c	-0.09972629
125	0xbd1073a0	-0.03526652
126	0x3cb1800e	0.021667507
127	0x3d5f063b	0.0544493
128	0xbe50a819	-0.20376624
129	0xbd1d6fd0	-0.03843671
130	0xbe7c9a53	-0.24668245
131	0xbeb37e05	-0.35057083
132	0xbdf9eb2f	-0.12203061
133	0xbde362ed	-0.11102853
134	0xbe4a513e	-0.19757554
135	0x3cc62c4d	0.024191046
136	0x3e17df99	0.1483139
137	0x3e71536c	0.23566979
138	0xbe15c8ac	-0.14627331
139	0xbc2d1040	-0.010562956
140	0x3dadca24	0.08485821
141	0xbe35fdb7	-0.17772566
142	0x3cac7e22	0.021056239
143	0x3e85653a	0.26053792
144	0xbceed592	-0.029154573
145	0xbd977fed	-0.07397447
146	0xbe542fc8	-0.20721352
147	0xbca06e46	-0.019583832
148	0x3de82f18	0.113371074
149	0x3e3b3aa5	0.1828409
150	0x3e1b6958	0.15176904
151	0x3e3fe1aa	0.18738428
152	0x3df5306f	0.119721286
153	0xbd3fb22c	-0.046800777
154	0xbd263a2d	-0.040582824
155	0x3e27ccf5	0.16386779
156	0xbdf4d2ba	-0.119542554
157	0xbd7e82f9	-0.062136624
158	0x3b8648f6	0.004098053
159	0xbe9d4283	-0.30714807
160	0xbeb757a8	-0.35809064
161	0xbb461427	-0.0030224414
162	0xbdd4e52b	-0.10395273
163	0xbc37f03c	-0.01122671
164	0xbbcc9822	-0.0062437216
165	0xbdab097b	-0.08351418
166	0xbd1d755a	-0.038441993
167	0x3cae0847	0.021244181
168	0xbe64d5df	-0.2234721
169	0xbe857980	-0.2606926
170	0xbe214c82	-0.15751842
171	0xbcb21c53	-0.021742022
172	0xbc865fb7	-0.016403062
173	0xbd58a9ac	-0.052896187
174	0x3d4b66a1	0.04965842
175	0xbc63ed5f	-0.013911574
176	0xbd3ea856	-0.046547256
177	0x3cecf52d	0.028925503
178	0x3d509db3	0.050931644
179	0x3d8473de	0.064674124
180	0xbd168424	-0.036747113
181	0xbe486c83	-0.19572644
182	0xbcf2b14a	-0.029625554
183	0xbda3ac71	-0.07991875
184	0xbcb5e687	-0.02220465
185	0x3dc3f268	0.0956772
186	0xbe28f781	-0.16500665
187	0xbe803c65	-0.25046077
188	0xbe427b91	-0.1899245
189	0xbb433c25	-0.0029790488
190	0x3da69518	0.08133906
191	0x3dba5401	0.09098054
192	0xbd4fbefe	-0.050719254
193	0x3ca39beb	0.019971808
194	0xbc69932d	-0.014256281
195	0xbd900404	-0.07032016
196	0x3db1fa08	0.08690268
197	0xbc8641c6	-0.016388785
198	0xbd7ffa91	-0.062494818
199	0xbdbb8967	-0.09157067
200	0x3d2c1277	0.042009797
201	0xbd7007d7	-0.058601227
202	0xbcc4cb7f	-0.024022816
203	0x3d1ac286	0.03778317
204	0xbe21b669	-0.1579224
205	0xbdd66b81	-0.104697235
206	0xbe131a58	-0.14365518
207	0x3da04018	0.07824725
208	0xbd86f8b2	-0.065904036
209	0xbdf39c48	-0.11895043
210	0x3d09d968	0.0336546
211	0x3cf6461e	0.030062731
212	0x3e377622	0.17916158
213	0x3db7456f	0.0894879
214	0x3cd502cc	0.02600231
215	0x3def5e3d	0.116878964
216	0xbdf91b5b	-0.12163421
217	0xbc8919b2	-0.016735885
218	0x3b6104b1	0.0034335072
219	0xbadaacc4	-0.0016683568
220	0x3d4b4143	0.049622785
221	0x3d898769	0.067152806
222	0xbe2a888f	-0.16653655
223	0xbe3f6ef4	-0.18694669
224	0xbd36905f	-0.044571277
225	0xbc69142a	-0.014225999
226	0x3e1fab61	0.1559272
227	0xbe22e24f	-0.15906642
228	0xbda0f188	-0.078585684
229	0xbdf16676	-0.11787121
230	0xbdfb1291	-0.12259401
231	0xbdc25fbf	-0.09490918
232	0xbdcc97b6	-0.09989874
233	0xbe52eda5	-0.20598467
234	0xbdcbb940	-0.09947443
235	0xbcb983c8	-0.022645846
236	0xbc8f851f	-0.017519532
237	0xbc05b1be	-0.008160053
238	0xbd568788	-0.052375346
239	0xbd890672	-0.066906825
240	0xbdb2795e	-0.08714555
241	0xbe5b05ad	-0.21388884
242	0xbe145d63	-0.14488749
243	0xbddeeba3	-0.10884788
244	0xbd1a7fca	-0.037719525
245	0x3d842b1e	0.064535365
246	0x3ca1f6f4	0.019771077
247	0x3dcaf0c6	0.09909205
248	0x3e0a5d9d	0.13512273
249	0xbc94e143	-0.01817382
250	0xbd92bf25	-0.07165364
251	0x3d1c6077	0.038177934
252	0xbdf6145c	-0.12015602
253	0xbda65644	-0.081219226
254	0xbe05d2f1	-0.13068749
255	0x3be7e08c	0.0070763286

conv2.bias f4 [64]
0	0xbd9299a3	-0.0715821
1	0x3bcd0457	0.006256621
2	0xbc3525dc	-0.01105639
3	0xbdda5bfc	-0.10662076
4	0x3d04e8c4	0.032448545
5	0x3c5f53d8	0.01363083
6	0xbdce4b05	-0.100729026
7	0xbd2ac3a1	-0.041690473
8	0xbd1bfe43	-0.03808428
9	0xbdaaeef9	-0.08346362
10	0xbda0daf5	-0.07854263
11	0xbdb8f640	-0.090313435
12	0xbbfc9bac	-0.007708987
13	0x3c6d2af1	0.01447557
14	0xbdfe3e22	-0.12414195
15	0xbd4f01d6	-0.05053886
16	0x3bc4790d	0.0059958757
17	0xbdfc8625	-0.123302735
18	0x39a3022b	0.00031091398
19	0xbd23ba95	-0.03997286
20	0xbd8c6939	-0.06856007
21	0xbcfe6088	-0.031051889
22	0xbdea9d7c	-0.11455819
23	0xbd270c51	-0.04078323
24	0xbd357ba2	-0.04430736
25	0xbdb3928d	-0.08768187
26	0xbd5f1683	-0.05446483
27	0xbdb88bf2	-0.090110675
28	0x3cb40ac9	0.021977799
29	0xbdafbb64	-0.08580664
30	0xbdcd4874	-0.10023585
31	0x3d06c93f	0.032906767
32	0xbda1a93c	-0.07893607
33	0xbd3bd4b2	-0.04585714
34	0x3e0e31f7	0.13886248
35	0xbb915358	-0.004434984
36	0xbdaa017e	-0.08301066
37	0xbda1854e	-0.07886754
38	0xbdd6c40d	-0.104866125
39	0xbe0bbf88	-0.13647282
40	0xbd36b581	-0.04460669
41	0xbdb0e804	-0.086380035
42	0xbcaa79a1	-0.02080995
43	0xbd231e41	-0.039823774
44	0xbcd91800	-0.026500702
45	0x3d255df1	0.040372793
46	0xbdc539b1	-0.096301444
47	0x3b874040	0.0041275322
48	0xbd0e4a7d	-0.034739006
49	0xbd31635d	-0.04330765
50	0xbc44d414	-0.012013454
51	0xbc8dd1a0	-0.017311871
52	0xbdd4a536	-0.10383074
53	0xbd1e8918	-0.03870496
54	0x3d005bdb	0.0313376
55	0xbdb3e790	-0.087844014
56	0xbd7b2643	-0.061315786
57	0xbda3bb38	-0.079946935
58	0xbda3a363	-0.07990148
59	0xbcacbb3a	-0.02108537
60	0xbd490ebc	-0.049086317
61	0xbd15d24b	-0.036577504
62	0xbd18486a	-0.037178434
63	0x3d5eebd4	0.054424122

conv3.weight f4 [128, 64, 3, 3]
0	0x3b0ea65d	0.002176664
1	0xbca27864	-0.019832797
2	0xbc912279	-0.017716633
3	0xbc5a621f	-0.013329058
4	0xbce62412	-0.028093372
5	0xbd412461	-0.047153834
6	0x3cd45e58	0.025923893
7	0xbd94216c	-0.07232937
8	0x3c229987	0.009924299
9	0x3d3ac1c3	0.04559494
10	0xbac12788	-0.0014736513
11	0xbb039ebd	-0.002008363
12	0xbcb29751	-0.021800669
13	0xbb56ae6b	-0.003275777
14	0x3d132540	0.035924196
15	0xbd85f090	-0.06540024
16	0x3d1d6d17	0.038434114
17	0xbd278a4d	-0.04090338
18	0x3bdae353	0.006679931
19	0xbc37efbb	-0.01122659
20	0x3c91ff85	0.017822037
21	0x3d053a5a	0.03252635
22	0xbd0f2aae	-0.034952812
23	0xbc0402cf	-0.00805731
24	0x3cec9d35	0.028883556
25	0x3ce3774b	0.027766844
26	0xbcfefee8	-0.031127408
27	0xba636080	-0.00086737424
28	0xbc76b680	-0.01505816
29	0x3b3eb09a	0.0029096962
30	0xbcddf5d9	-0.027094768
31	0xbd0432d8	-0.03227505
32	0xbd3f846b	-0.046757143
33	0x3c1a2e34	0.00941043
34	0x3a7de928	0.0009685927
35	0xbd40ff4d	-0.047118474
36	0xbcdecf05	-0.027198324
37	0x3c328d3c	0.010897931
38	0xbce78809	-0.028263109
39	0x3baad2a2	0.0052130977
40	0x3ca9602f	0.020675747
41	0xbbde9f51	-0.0067938943
42	0xbd0d0b1c	-0.034434423
43	0xbd24882f	-0.040168937
44	0x3cbc44e7	0.022982074
45	0x3d2dcf96	0.042434298
46	0x3cab8c95	0.020941058
47	0x3ad49ac1	0.0016220437
48	0xbd4427f7	-0.047889676
49	0x3a6c77d2	0.000902054
50	0xbcbd1a2a	-0.023083765
51	0xba24b88d	-0.0006283604
52	0xbcfe9e28	-0.031081274
53	0xbc42c0de	-0.011886803
54	0x3d049be7	0.032375243
55	0x3d127563	0.03575648
56	0x3ca6b275	0.020348767
57	0xbc4a0b6b	-0.012331824
58	0x3c867b59	0.016416239
59	0xbcf44394	-0.02981738
60	0xbd37c267	-0.04486313
61	0xbd3d65ff	-0.04623985
62	0x3d0944a9	0.033512745
63	0xb9b5021c	-0.00034524582
64	0xbcceac4d	-0.025228644
65	0xb8e6cdc0	-0.000110055786
66	0x3c8de1cb	0.01731958
67	0xbd7b158f	-0.061299857
68	0xbd125cf2	-0.03573317
69	0x3c835eaf	0.01603636
70	0xbd3a4fa1	-0.045486096
71	0xbd71f0a6	-0.05906739
72	0xbd29cb3d	-0.04145359
73	0x3d14c96d	0.036324907
74	0xbc36a960	-0.011148781
75	0xbdb377e9	-0.087631054
76	0x3cbc97fd	0.023021692
77	0xbd0e6ca2	-0.03477157
78	0x3cbd6072	0.023117278
79	0xba669f35	-0.00087975274
80	0xbd30f680	-0.04320383
81	0x3b2fa4c6	0.0026801093
82	0xbc90f11f	-0.0176931
83	0xbd2aa542	-0.04166151
84	0xbd0bc0ad	-0.034119297
85	0xbc3f7f86	-0.011688119
86	0xbb1f9b3a	-0.0024353997
87	0x3ca5ea84	0.020253427
88	0xbd89ed61	-0.067347296
89	0xbcd82646	-0.026385438
90	0xbca06a96	-0.019582074
91	0xbd15ebc0	-0.03660178
92	0xbcfc6f96	-0.030814927
93	0xbc2898fb	-0.01029038
94	0xbd449fbc	-0.048003897
95	0xbd392e98	-0.04521045
96	0x3d1ee7f7	0.038795438
97	0xbc1bda40	-0.009512484
98	0xbc0750d5	-0.008259018
99	0x3c66b627	0.014081514
100	0xbd493cf9	-0.049130414
101	0xbca800e8	-0.020508245
102	0xbb3cb4cc	-0.0028794287
103	0xbcbf70d7	-0.023369236
104	0x3ca01831	0.019542785
105	0x3c073a9a	0.008253718
106	0xbd218e09	-0.039442096
107	0xbb90eb4e	-0.0044225818
108	0x3b00cd29	0.0019653535
109	0xbc850075	-0.01623557
110	0xb990d656	-0.00027625513
111	0xbcb48b2d	-0.02203902
112	0xbcdc96fc	-0.026927464
113	0xbd967e56	-0.073483154
114	0xbd130433	-0.035892677
115	0xbd853663	-0.06504514
116	0xbb85c7dd	-0.0040826635
117	0xbd286e3e	-0.04112076
118	0xbcef461d	-0.029208237
119	0x3becfd0a	0.007232313
120	0xbd3e9cb1	-0.04653615
121	0x3b60511c	0.0034228032
122	0x3d4887b5	0.048957545
123	0x3d535f3c	0.051604494
124	0xbbe9e8f6	-0.007138367
125	0x3d154777	0.036445107
126	0xbd37a735	-0.044837195
127	0xbd04f48f	-0.03245979
128	0xbcb749b9	-0.02237402
129	0x3d1b0eb4	0.03785582
130	0xbd00c6b2	-0.03143949
131	0xbbeef9f5	-0.007292981
132	0xbc840721	-0.01611668
133	0x3cfe37cd	0.031032467
134	0xbd2affac	-0.041747734
135	0x3d5f4fed	0.054519583
136	0xbc41a187	-0.011818296
137	0x3ca0eac9	0.019643204
138	0x3c35e261	0.011101336
139	0xbd309ec6	-0.04312017
140	0x3c2a4dad	0.010394496
141	0xbd12ec8b	-0.035870116
142	0xbdc80650	-0.09766829
143	0x3b647e30	0.0034865253
144	0xbc34d3a8	-0.011036791
145	0xbde268fe	-0.11055182
146	0xbc98924e	-0.018624451
147	0x3d5be0a0	0.053681016
148	0xbc8d6523	-0.01726014
149	0xbc3e4a64	-0.011614416
150	0xbd773cc8	-0.0603607
151	0xbd8a18c9	-0.06743009
152	0x3a47cf17	0.00076221064
153	0x3c464010	0.012100235
154	0xbbdb3fd3	-0.006690958
155	0xbd294c91	-0.041332785
156	0x3da227d5	0.079177536
157	0xbd437b90	-0.04772526
158	0xbd33639c	-0.043796167
159	0xbd771c27	-0.060329583
160	0xbc7a6886	-0.015283709
161	0xbc222548	-0.009896584
162	0xbd28a0db	-0.04116903
163	0x3d54e020	0.051971555
164	0x3c595e08	0.013267048
165	0xbc4ce93f	-0.012506782
166	0xbd4950c0	-0.049149275
167	0x3b51be2c	0.003200422
168	0xbd34104f	-0.043960866
169	0x3b708f51	0.0036706517
170	0xbcb2a129	-0.021805363
171	0x3c18c959	0.009325349
172	0xbc604533	-0.013688373
173	0xbd3cc558	-0.04608664
174	0xbcafd9ef	-0.021466224
175	0xbda1de69	-0.079037495
176	0xbd7d57c4	-0.061851278
177	0xbb896330	-0.0041927323
178	0xbcd4a0c3	-0.025955563
179	0x3b76ee89	0.00376788
180	0xbcecf934	-0.028927423
181	0xbcffa106	-0.031204712
182	0xbd7a403f	-0.061096426
183	0x3cbc1401	0.022958757
184	0xbd8416ab	-0.06449636
185	0xbdc7f0c1	-0.09762717
186	0xbc4b83a1	-0.0124215195
187	0xbdbda026	-0.092590615
188	0xbc0282dd	-0.007965771
189	0xbd8f771f	-0.070051424
190	0xbd1627dd	-0.03665911
191	0xbd7da39d	-0.061923612
192	0x3d56fd6f	0.052487787
193	0x3c6352cd	0.013874722
194	0xbd1cdf38	-0.038298815
195	0xbbd11688	-0.0063808598
196	0xbda09c9c	-0.07842371
197	0xbdad6db3	-0.08468189
198	0x3d2bcdbb	0.041944247
199	0xbd547a04	-0.051874176
200	0xbbc49179	-0.005998787
201	0xbca55429	-0.020181732
202	0xbd428eb0	-0.04749936
203	0xbd1e09b9	-0.03858349
204	0xbb87f129	-0.0041486216
205	0xbd6670a0	-0.05625975
206	0x3cfd3ea2	0.030913655
207	0xbc18d984	-0.0093292035
208	0xbc368944	-0.011141125
209	0x3bb9a074	0.0056648795
210	0x3c284e30	0.010272548
211	0xbcfe6064	-0.031051822
212	0x3d0d50bd	0.034500826
213	0x3cbcef7d	0.023063416
214	0x3b9cf50c	0.004789954
215	0x3d0905f6	0.03345295
216	0xbb85e46f	-0.0040860693
217	0xbcad6e7a	-0.021170843
218	0xbbc6e87e	-0.0060701957
219	0xbcd71e52	-0.026259575
220	0x3d32127a	0.043474652
221	0xbcbffc14	-0.02343563
222	0xbccb59b3	-0.024823045
223	0xbd8f3532	-0.06992568
224	0xbd5bad44	-0.053632036
225	0xbcea7ff8	-0.028625473
226	0xbd05bd29	-0.0326511
227	0xbd2c9d2d	-0.042142082
228	0xbd49d966	-0.049279593
229	0xbd8e7ce9	-0.069574185
230	0xbd8121f8	-0.06305307
231	0xbcd3fd13	-0.025877511
232	0xba8e7010	-0.0010867137
233	0x3bef192f	0.0072967033
234	0x3d5164b7	0.05112144
235	0x3d1fdf3b	0.03903125
236	0xbcd5c675	-0.026095608
237	0xbd8dc0ed	-0.06921563
238	0xbcce681c	-0.025196128
239	0xbd5ebe7c	-0.05438088
240	0xbd045b6b	-0.032313745
241	0xbd3ee9da	-0.046609737
242	0xbda4a153	-0.08038583
243	0x3d53e172	0.051728673
244	0xbc0990d2	-0.008396344
245	0xbd65da62	-0.05611647
246	0x3d622ad6	0.055216633
247	0xbd3cf71f	-0.04613411
248	0xbd7dbbe4	-0.061946765
249	0xbc9a6e47	-0.018851412
250	0xbd013f0b	-0.031554263
251	0x3c032a22	0.008005651
252	0xbb982963	-0.0046436056
253	0xbc90067b	-0.017581215
254	0xbd0f1757	-0.034934368
255	0x3ce7d79d	0.028301055

conv3.bias f4 [128]
0	0xbce781e7	-0.028260184
1	0xbdba18b9	-0.09086747
2	0xbd384003	-0.04498292
3	0xbc78aa29	-0.015177288
4	0xbd02d9df	-0.03194606
5	0xbcf0a05b	-0.029373338
6	0x3c77806a	0.0151063
7	0xbb5ad028	-0.003338823
8	0xbd014ad0	-0.031565487
9	0xbd858354	-0.065191895
10	0x3ab258f9	0.0013606838
11	0xbdc469f1	-0.09590519
12	0xbd647c80	-0.055782795
13	0xbcc6497c	-0.024204962
14	0xba821748	-0.0009925151
15	0xbca366f2	-0.01994655
16	0xbd53d24c	-0.051714227
17	0xbcd5c44b	-0.026094576
18	0xbd1c76c2	-0.038199194
19	0xbc3483cf	-0.011017754
20	0xbd2eec90	-0.042706072
21	0xbd285528	-0.041096836
22	0xbd8aa1ac	-0.06769118
23	0xbcd59735	-0.026073078
24	0xbd9714b1	-0.073769934
25	0xbde40ce1	-0.11135269
26	0x3d3850e0	0.044999003
27	0xbdc0dfb4	-0.09417668
28	0xbd432e2d	-0.04765146
29	0xbd8933a1	-0.066993006
30	0xbd31a28f	-0.04336792
31	0xbcf16027	-0.029464794
32	0xbd80c352	-0.062872544
33	0xbd655890	-0.055992663
34	0xbe1b8e9b	-0.15191118
35	0xbdb3be22	-0.08776499
36	0xbd2c3fa1	-0.04205287
37	0x3c751100	0.014957666
38	0x3b458552	0.003013928
39	0x3c4784c9	0.012177655
40	0xbd87af4f	-0.06625234
41	0x3d8ef9f4	0.069812685
42	0xbd81e19e	-0.06341861
43	0xbdcec55b	-0.10096236
44	0xbd04a768	-0.032386214
45	0xbd721dbd	-0.059110392
46	0x3cd94468	0.026521876
47	0xbddb27a6	-0.10700922
48	0xbd9ffe11	-0.07812131
49	0xbd2836a1	-0.041067723
50	0x3ca9970d	0.02070191
51	0xbd720b2d	-0.05909269
52	0xbd193444	-0.03740336
53	0xbba7d7a0	-0.00512214
54	0x3c72689d	0.01479545
55	0xbd574e5b	-0.05256496
56	0x3bd7b111	0.0065823873
57	0xbb275ef5	-0.0025538777
58	0x3c93a54b	0.018023154
59	0x3c71b10f	0.014751687
60	0xbdafff99	-0.08593673
61	0xbc6ec52f	-0.014573379
62	0xbd417752	-0.047232933
63	0xbd0699c2	-0.03286148
64	0xbd051e26	-0.032499455
65	0xbc71424b	-0.014725278
66	0x3bbf4bd4	0.005837897
67	0xbcde9e96	-0.027175229
68	0x3bec3d68	0.0072094686
69	0xbcfc11df	-0.03077024
70	0xbbd80fbf	-0.006593674
71	0xbd8b2510	-0.067941785
72	0xbdc1bcf4	-0.09459868
73	0xbdb66953	-0.08906808
74	0xbd962791	-0.073317654
75	0xbd10b36b	-0.035327356
76	0xbdd9b4fe	-0.10630225
77	0xbd7e6706	-0.06210997
78	0x3cbb0b2b	0.022832474
79	0xbdb928ff	-0.090410225
80	0x3d29f7c4	0.041496053
81	0x3ba535b7	0.0050418037
82	0xbd837116	-0.06418054
83	0xbd3a4508	-0.04547599
84	0xbdc1708e	-0.09445296
85	0x3c8d31a5	0.017235586
86	0xbd124e4e	-0.03571921
87	0xbceb12a7	-0.028695418
88	0xbdaa7c77	-0.08324521
89	0xbcfd4f00	-0.03092146
90	0xbcaf33c6	-0.021386992
91	0xbd9427a9	-0.07234127
92	0xbd615513	-0.055012774
93	0x3b4d915d	0.003136716
94	0xbb41055d	-0.002945266
95	0xbddd22be	-0.10797642
96	0xbd99a747	-0.07502609
97	0xbd98f404	-0.07468417
98	0xbcc5f736	-0.02416573
99	0x3c074efa	0.008258576
100	0xbdbbfc96	-0.09179036
101	0xbd1617f8	-0.036643952
102	0x3d1776c3	0.036978494
103	0xbcf7e786	-0.030261766
104	0x3d0725db	0.032995086
105	0x3c2ee922	0.0106757
106	0xbc2145df	-0.009843319
107	0xbd6c0e60	-0.057630897
108	0x3d82320d	0.06357203
109	0xbccfdeb1	-0.025374742
110	0xbdf1d541	-0.11808253
111	0xbd881d13	-0.066461705
112	0xbcaf9295	-0.0214322
113	0xbd122328	-0.03567806
114	0xbd4c9b93	-0.049953055
115	0xbd7cfcd4	-0.061764553
116	0x3c36c639	0.011155658
117	0xbd780d4f	-0.060559567
118	0xbd12b881	-0.035820488
119	0xbc69139e	-0.0142258685
120	0x3cd52156	0.026016872
121	0xbd6a0b42	-0.057139643
122	0x3c9ef5f5	0.01940439
123	0xbc6821c5	-0.0141682075
124	0xbd516d0d	-0.05112939
125	0xbc980259	-0.018555807
126	0xbdc00cbc	-0.09377429
127	0xbd493923	-0.049126755

fc1.weight f4 [10, 128]
0	0x3d16222c	0.036653683
1	0xbe406971	-0.18790223
2	0x3c4e2842	0.01258284
3	0xbe05c259	-0.13062419
4	0x3d024475	0.031803567
5	0xbc28761a	-0.010282064
6	0xbd098504	-0.03357412
7	0xbdbce1da	-0.09222765
8	0x3daf7ca1	0.08568693
9	0xbda5fac3	-0.081044696
10	0xbda2659c	-0.07929537
11	0xbdd788e9	-0.105241604
12	0x3d0e328e	0.03471618
13	0x3e407ea9	0.18798317
14	0xbd803746	-0.062605426
15	0x3dbaf535	0.09128801
16	0x3c70d4a4	0.014699135
17	0x3e16c600	0.14723969
18	0x3d828236	0.06372492
19	0x3bfa191d	0.0076323883
20	0x3e020db4	0.1270054
21	0x3d05c62c	0.032659695
22	0x3d5dbca1	0.05413497
23	0x3d8da3b2	0.06915988
24	0xbd0179dc	-0.031610355
25	0x3e00c565	0.125753
26	0xbde960cf	-0.11395418
27	0x3daa30b1	0.083100684
28	0xbdd0cd13	-0.10195365
29	0xbbc72a16	-0.006078015
30	0xbe63b726	-0.22237834
31	0xbcd4e232	-0.025986765
32	0xbddaaad6	-0.106771156
33	0xbd552448	-0.052036554
34	0xbcb81cee	-0.022474732
35	0xbe3d7ecc	-0.185054
36	0x3e21f3bf	0.15815638
37	0xbd6d1452	-0.057880707
38	0xbe0762e0	-0.13221312
39	0xbe3f7803	-0.18698125
40	0x3d75bbcc	0.05999355
41	0xbe8d5045	-0.27600303
42	0xbdadfe53	-0.08495774
43	0xbdbf0994	-0.09327999
44	0x3ddc065d	0.10743401
45	0x3d52ddb5	0.051480968
46	0x3ccfe501	0.025377752
47	0xbe05dd99	-0.13072814
48	0xbe0ab0f8	-0.1354407
49	0x3dec94e1	0.11551834
50	0x3e2faab1	0.17154957
51	0xbd7b298e	-0.061318927
52	0xbd862cf9	-0.065515466
53	0xbe4c00de	-0.19922206
54	0xbee4653c	-0.44608486
55	0x3e2a39ec	0.16623658
56	0x3d303f9f	0.043029424
57	0x3e3e574e	0.18587992
58	0x3dd6b71f	0.10484146
59	0xbdc21a3e	-0.094776616
60	0xbe321832	-0.17392042
61	0xbe110d6e	-0.1416528
62	0xbe5b4544	-0.21413141
63	0xbcb32a60	-0.021870792
64	0x3d98fbb6	0.07469885
65	0xbe79fe7d	-0.24413486
66	0x3ca9384d	0.02065673
67	0xbdb8c2d9	-0.09021539
68	0xbe08788f	-0.1332724
69	0xbe34b1d5	-0.17645963
70	0xbe097090	-0.13421845
71	0x3da45ccc	0.08025512
72	0xbddc1549	-0.10746247
73	0xbe8ce5a1	-0.27518943
74	0x3de08fbf	0.109649174
75	0x3dae607b	0.08514496
76	0xbc90fd1c	-0.017698817
77	0xbd97a85e	-0.0740516
78	0xbd9674e3	-0.07346513
79	0x3d6d960b	0.05800442
80	0x3d1a1595	0.03761824
81	0xbe1db016	-0.15399203
82	0xbe3a4868	-0.18191683
83	0xbdfe0436	-0.12403147
84	0xbe7b9894	-0.24569923
85	0x3ccbe62b	0.024890026
86	0x3d6e8396	0.05823096
87	0x3dd18962	0.10231282
88	0x3c937fc4	0.01800526
89	0xbe6b77b6	-0.22994885
90	0xbd26c1a1	-0.040712003
91	0xbe1c3050	-0.15252805
92	0xbdb9b644	-0.090679675
93	0xbddbc3bf	-0.10730695
94	0xbeb65186	-0.35609072
95	0xbb651213	-0.00349534
96	0x3d10364d	0.035208035
97	0xbd5b5365	-0.053546328
98	0xbc5a066d	-0.013307196
99	0xbe8e4850	-0.27789545
100	0x3df4127e	0.119175896
101	0x3df9c1b8	0.12195152
102	0xbdcba14e	-0.09942876
103	0x3ca0891b	0.019596627
104	0xbe86d281	-0.26332477
105	0x3d09c655	0.03363641
106	0xbe262a88	-0.16227162
107	0xbdb31440	-0.08744097
108	0x3d0630b0	0.032761276
109	0xbda0539d	-0.07828448
110	0xbdc227a6	-0.094802186
111	0x3c989b33	0.018628692
112	0x3d9b784e	0.07591306
113	0x3d2c4fb9	0.042068217
114	0xbe210213	-0.15723448
115	0xbe0beb50	-0.13663983
116	0x3df437a8	0.11924678
117	0xb8b641ce	-8.690693e-05
118	0xbda41501	-0.08011819
119	0xbcf73d02	-0.030180458
120	0x3e299942	0.1656237
121	0x3e0697c0	0.13143826
122	0xbe9bd988	-0.304394
123	0x3d9b3392	0.07578196
124	0x3dfbb1e9	0.12289793
125	0x3b4589d0	0.0030141957
126	0xbcc8996e	-0.024487223
127	0x3c38ba0f	0.011274829
128	0xbd1b7f46	-0.037963174
129	0x3d86e625	0.06586865
130	0x3d8e399f	0.06944584
131	0x3df6194e	0.12016545
132	0xbe0d3df7	-0.13793169
133	0xbe815c53	-0.2526575
134	0x3d9be698	0.07612342
135	0xbed9a227	-0.42506525
136	0xbecd0217	-0.40040657
137	0xbc1ac4a1	-0.009446294
138	0x3db944a1	0.09046293
139	0xbdc59b8d	-0.096488096
140	0x3e0f8d45	0.14018734
141	0xbe1c1d36	-0.15245518
142	0x3c34c28e	0.011032714
143	0xbdba4b36	-0.090963766
144	0x3d9a4dec	0.07534394
145	0xbe1d011f	-0.15332459
146	0x3b96030e	0.004578001
147	0xbd934a3e	-0.07191895
148	0xbe9f85ad	-0.31156674
149	0x3e05760d	0.13033314
150	0xbce0dfff	-0.02745056
151	0xbea2e018	-0.31811595
152	0x3d1c5740	0.038169146
153	0xbe6f7429	-0.23384155
154	0x3e24b0cb	0.16083066
155	0x3e04c9d2	0.12967613
156	0xbd15fd51	-0.036618534
157	0x3d2993c1	0.041400675
158	0xbd8e2284	-0.06940177
159	0xbf02ba1b	-0.51065224
160	0xbe3ad23f	-0.18244265
161	0xbe2e07dd	-0.16995187
162	0xbc5eb9f9	-0.013594144
163	0x3d886527	0.06659918
164	0xbe68d39f	-0.22736977
165	0x3bc957c7	0.006144497
166	0xbebe912f	-0.3722014
167	0xbe938b3b	-0.28817162
168	0xbe39f350	-0.18159223
169	0x3e0cbce8	0.13743937
170	0xbd2a6243	-0.041597616
171	0x3d2f9c43	0.042873632
172	0xbef63fbb	-0.48095497
173	0x3dfdc0b3	0.1239027
174	0xbd2745a4	-0.0408379
175	0xbd40360b	-0.04692654
176	0x3d101318	0.03517446
177	0x3e24ba6e	0.16086742
178	0x3e2cc74a	0.16872898
179	0x3d4537a2	0.04814876
180	0x3e0b5246	0.13605604
181	0xbe74ee40	-0.2391901
182	0x3de36a0d	0.11104212
183	0xbed76211	-0.42067006
184	0xbe91b928	-0.28461576
185	0xbd1f6851	-0.038917843
186	0xbe45eb12	-0.19327953
187	0x3e2a0478	0.16603267
188	0x3e23d753	0.16000108
189	0xbe577655	-0.21041234
190	0xbd0d4164	-0.03448619
191	0x3c9c70b8	0.019096717
192	0x3c9930c2	0.018700007
193	0x3dade14e	0.08490239
194	0xbe61c3f1	-0.22047402
195	0xbd17bcf4	-0.037045434
196	0xbe6a5941	-0.2288561
197	0x3cae3d18	0.021269366
198	0x3dde87a5	0.10865716
199	0xbe04eca4	-0.12980896
200	0xbdc0e5a3	-0.094188
201	0xbdcf5076	-0.101227686
202	0x3d2e7955	0.04259618
203	0xbe252346	-0.16126737
204	0xbdd1c9ba	-0.102435544
205	0x3d64ae52	0.055830307
206	0x3d1ec825	0.03876509
207	0xbcdc50d8	-0.026894018
208	0xbe2aabf5	-0.16667159
209	0xbdfed7fb	-0.12443539
210	0xbe5a20ed	-0.21301623
211	0x3e199768	0.14999163
212	0xbde17c8e	-0.11010085
213	0x3da12a56	0.07869403
214	0x3d3cb54a	0.04607133
215	0xbe1be509	-0.15224089
216	0x3e276ecf	0.16350864
217	0xbdd58834	-0.10426369
218	0x3dd7246d	0.105049945
219	0x3d85a27a	0.065251306
220	0x3da3cc71	0.079979785
221	0xbe1c0cc0	-0.15239239
222	0x3e08299a	0.1329712
223	0xbe66aace	-0.22526094
224	0x3d59717c	0.053086743
225	0x3d2a03c3	0.041507494
226	0xbdb23e76	-0.0870332
227	0x3c773a22	0.015089544
228	0x3e2703c1	0.16310026
229	0xbd00aa5d	-0.03141247
230	0xbe53ceda	-0.20684376
231	0x3d2ad49a	0.04170666
232	0xbead8df2	-0.33897358
233	0xbd7e28fa	-0.062050797
234	0x3d0a2224	0.033723965
235	0xbd9a79da	-0.075427726
236	0x3de04560	0.10950732
237	0x3ca77606	0.02044202
238	0x3d8c199b	0.06840821
239	0x3d7ec347	0.06219795
240	0xbd270cef	-0.04078382
241	0xbdbeb67c	-0.0931215
242	0xbeb7739d	-0.35830393
243	0xbe154c38	-0.14579856
244	0x3e12847d	0.14308353
245	0xbe2ff205	-0.17182167
246	0xbe499f6f	-0.19689725
247	0xbd376644	-0.044775262
248	0x3dde4dc4	0.10854676
249	0xbe792d8e	-0.24333784
250	0x3e479803	0.19491582
251	0x3df0ed63	0.11764028
252	0xbe848c95	-0.25888506
253	0x3db1e377	0.086859636
254	0x3d80ffb9	0.06298775
255	0xbd555a8d	-0.05208831

fc1.bias f4 [10]
0	0x3eaab136	0.33338326
1	0x3e4f70fa	0.20257941
2	0xbe6b79c7	-0.22995673
3	0x3d88ce8e	0.06680022
4	0x3d2d7218	0.042345136
5	0x3d951e2b	0.07281145
6	0x3c4f60d1	0.01265736
7	0x3da3c391	0.07996286
8	0x3dc9ae38	0.09847683
9	0xbe85759f	-0.260663
